checkpoint - 1.pth (torch_old, 28451 bytes, 6 tensors)

fc1.weight f4 [64, 37]
00000000: 56c7 c5bd 7208 543d 1f73 20be dfd7 a53d
00000010: e3da a73d 1ce3 a13d 3bb5 9dbd b9f8 df3d
00000020: 31c1 95be 55e9 113d 28bd 8abe b9fa 87bd
00000030: 6b17 9dbd 00ab 7b3d 524f dc3d b271 e03a
00000040: fd9f 163b 924f 0d3d a49a 953d a53a 7abe
00000050: 530e 103e e597 abbc 46a3 2fbd 4351 4f3d
00000060: 7370 67be f248 db3d 5bd7 0a3e e50a 53be
00000070: 4635 81be 3958 bbbd baaa 533d e57c 1abb
00000080: d6a0 17bd 8354 ae3d e68c b0bd 968d 68be
00000090: 5dd6 83bd 9f03 0f3e fee0 b03d 34a0 8a3d
000000a0: 186e 49bd f270 18be 29ba 96bd b167 50bd
000000b0: 02e1 20be 9789 52be 4add de3d db2d 8e3e
000000c0: ef25 28be 58ff 343c 4ab1 87bd a162 b5be
000000d0: 7e67 9e3d 2029 3abd 0881 093e f447 7cbd
000000e0: 2db3 a1bc c0a3 95be 0dfc 823c 2374 e13b
000000f0: 0f9f c5bd 960c 823e 9c8e 8bbd 10bf b1bd
00000100: 1012 083e 1227 cfbd fd7b 85be 1f9d c5bd
00000110: a952 2a3e 3377 e93d 46b1 e63d 50ba f93d
00000120: b1c8 0abd 68e3 063b 622c ebbd 8d5d 753d
00000130: 5d95 933e 9d70 66bc 5b83 8abd e587 91be
00000140: 2b90 34be a06b 013f 21a4 efbd 49bd 4dbf
00000150: 5d73 94bd 5bbe 93bd adb1 0f3e 74da 53be
00000160: 007c e8bd c8ec 2d3d 0f44 ffbb 0183 273e
00000170: 30cc 28be e01a a3be 2864 7b3c 9ca1 dcbd
00000180: 8298 f33d 0266 6dbd 6e0d adbd e64c b1be
00000190: f7e6 633e 6f85 7b3e d173 063e bf35 13be
000001a0: e341 3dbe efc8 223d 04db efbc 83ca 86be
000001b0: 858b a4be c9e7 6b3c 5036 6cbc ee1d b73e
000001c0: 19c6 a5be 3849 043e 89e3 72bd b510 49bf
000001d0: 64a8 ccbd a1fa 133d 0789 8a3e d7e0 d83d
000001e0: 870b 433e 705b 1abe a04e 3d3d cf1c 8f3d
000001f0: 5792 a6bd b695 123b c1d5 1abd 8d4e 523d
00000200: 54ed a8bc 1360 98be 1704 c3be 6a07 043d
00000210: a58b bcbc 7f08 80bb b398 733c 9937 d8bd
00000220: 860b bdbc ab33 423e 351c 173d 8871 54bd
00000230: 61a9 053e e4a2 21be aaf4 8c3e b67c 803e
00000240: 94dd 87bd 0b33 67be 6cb3 d33d 3623 16bc
00000250: b149 a63c ae72 84be 8f45 94bd 0983 d0be
00000260: b8a0 6bbe e925 da3d b938 733e 5f0d c9be
00000270: 5de0 95bd 78b5 cabd 6b1d c63d 3db7 94be
00000280: 3644 8dbd 3f8b e6bd 45d9 6cbe 1a2c e5bd
00000290: 9d2a c6bd 5151 38be 3f55 153e 4424 d53c
000002a0: 2dbd fabc cfab 13be 6343 0ebd c7aa fabc
000002b0: 4ae0 823e 6cae 013d 397f acbd babc 803d
000002c0: 1e30 79bd 8a15 493e 5f3e f33d f0be 6cbe
000002d0: b0ae bcbc f095 16bd 9bca bc3e edc2 b2bd
000002e0: 5f31 c03b c8c4 3b3d 2957 8bbc fd8e 31bd
000002f0: 5e9f adbd a1d5 62bc 2487 913e 13a6 a7bc
00000300: d049 b2be 5cf4 83be bc8d 21bf 6451 0b3d
00000310: 062a 45be b417 b838 146c bdbd 75d1 2fba
00000320: ba3f a03d 76dd 3abd c99f 1dbe 88ba 803d
00000330: b541 21be cffe 213e fc0f 633d b80e 903d
00000340: b701 a6bd c0cf 2abd 630c a23c 8181 26be
00000350: a88f dc3b 7936 073e 7593 c73d 688e 433d
00000360: 66ad 0abe 7c42 b2bc f4c1 bb3d 1d0c 25be
00000370: a1ec 323c 042e 9d3d 2cee 4e3b 388d cb3d
00000380: 536c 683d 5074 adbe 5d59 edbd 2f4e 97be
00000390: 6dbe 4cbd 512f 0d3d da72 b23d 0a31 533e
000003a0: cfe1 45bd e64f 2c3e 1709 0c3d 2b30 58be
000003b0: ffe2 983e ca55 3dba c53b 0abe f5a9 7fbd
000003c0: c5f6 2cbd 1498 49bd 5c63 13be 3fb6 e53d
000003d0: 2c81 673d 892d f5be 1db3 873e 0efd 81be
000003e0: b54b 213d 6dc3 1bbd 8859 dabd 617d 18be
000003f0: b1dc 75bd f1bb d13d 5f3a 4ebe ff53 8ebd
-0.09657161 0.051765867 -0.15668915 0.08097815 0.08196046 0.07904646 -0.077005826 0.10936112
-0.29248956 0.035622913 -0.2709744 -0.066396184 -0.07670482 0.061442375 0.10757317 0.0017123728
0.0022983544 0.034499712 0.07304886 -0.24436434 0.14067964 -0.020946452 -0.04288032 0.050614607
-0.2260149 0.107072726 0.13558714 -0.20609625 -0.25235957 -0.091476865 0.05167649 -0.0023572978
-0.03701862 0.08512213 -0.08620624 -0.22710261 -0.06437371 0.13966225 0.08636664 0.067688376
-0.04917726 -0.14886835 -0.07359726 -0.050880138 -0.15710834 -0.20560299 0.10882051 0.2776936
-0.1642072 0.011047207 -0.06625612 -0.3542681 0.07734583 -0.045449376 0.13428128 -0.061592057
-0.019738758 -0.29226494 0.015989328 0.0068802997 -0.09649479 0.25400227 -0.0681431 -0.086790204
0.1328814 -0.10114874 -0.26071158 -0.09649109 0.16633095 0.113996886 0.11264281 0.121937394
-0.0338828 0.0020582322 -0.11483075 0.05990367 0.28824893 -0.014064935 -0.06763335 -0.28423992
-0.1763312 0.5055485 -0.11701227 -0.8036695 -0.07248566 -0.07214042 0.14032622 -0.20688802
-0.11351776 0.04246214 -0.0077900956 0.16358568 -0.16484141 -0.31856441 0.015343703 -0.10773012
0.11894323 -0.05795861 -0.08449827 -0.3462898 0.22256075 0.2456262 0.13130118 -0.14375971
-0.18482165 0.039742406 -0.02927924 -0.2632638 -0.32137695 0.014398524 -0.014417246 0.35765022
-0.323777 0.12918556 -0.059299026 -0.7854112 -0.099930555 0.03612769 0.2705767 0.1058976
0.19047366 -0.15073943 0.04621756 0.06987917 -0.08133381 0.0022367067 -0.037801508 0.051344443
-0.02062098 -0.297608 -0.38089058 0.032233633 -0.023015806 -0.003907263 0.014867949 -0.105574794
-0.023076784 0.18965022 0.036892135 -0.051866084 0.13052894 -0.15784794 0.27530414 0.25095147
-0.066340595 -0.22578065 0.103369564 -0.009163668 0.02029881 -0.25868744 -0.0723983 -0.40724972
-0.23010528 0.10651762 0.23752107 -0.39268014 -0.073181845 -0.09897894 0.0967358 -0.2904605
-0.06897776 -0.11257028 -0.23129757 -0.11190052 -0.096760966 -0.1799977 0.145833 0.02601827
-0.030607784 -0.14421009 -0.034732234 -0.030599011 0.25561744 0.031660482 -0.08422703 0.06285997
-0.060836904 0.19637123 0.11877131 -0.23119712 -0.023032516 -0.036764085 0.36873326 -0.087285854
0.0058652605 0.045841962 -0.017009335 -0.043349255 -0.084776625 -0.013844878 0.28423417 -0.020464933
-0.3482194 -0.2577237 -0.63106894 0.034013167 -0.19254312 8.778219e-05 -0.0924913 -0.0006706932
0.07824655 -0.045621358 -0.15392984 0.06285578 -0.15747721 0.15819858 0.055435166 0.070340574
-0.08105796 -0.041702032 0.019781297 -0.1626034 0.0067309923 0.13204373 0.09744922 0.04774323
-0.13542709 -0.021760218 0.09167853 -0.16117902 0.010920675 0.076747924 0.0031575067 0.09939045
0.05674393 -0.33877802 -0.1158931 -0.29551837 -0.04998629 0.034468953 0.087133124 0.20624176
-0.04831105 0.16827354 0.034188356 -0.21112125 0.29860684 -0.00072225614 -0.13499363 -0.062417943
-0.042227525 -0.0492173 -0.14393371 0.11216401 0.056519672 -0.47886303 0.2650384 -0.25388378
0.03937884 -0.03802817 -0.10661608 -0.14891578 -0.06002492 0.10240925 -0.20139454 -0.06949615

fc1.bias f4 [64]
00000000: 75dc 8f3d 38b1 d0bc 579b 98bd 40d5 cabb
00000010: c42b ce3d e619 f0bc 0a84 c4bd 884e e93c
00000020: eb31 9f3d 4bdf 59be c347 fb3d 5f76 073e
00000030: aa12 f73d 3e31 5b3c 618e 3dbd 90ad 8abd
00000040: 9688 4e3b 4287 81bd bdcc f73c b602 3fbe
00000050: 8805 adbd c833 3b3c 34ab 06bd fe1d b3bd
00000060: 745f 0ebe 7431 f43d 8404 043d 751b bbbd
00000070: 4b43 023e 850d 713e fc9c 84bd f7d2 5ebe
00000080: 20d0 093e 89b4 a33c 3a7d a5bd 1e1d e03c
00000090: 3a32 9dbd 223e 0c3d 9c8c 38bb e7ff e1bd
000000a0: f72a 12be d1f3 473d f8b0 08bd 7999 1c3e
000000b0: 0ae2 ba3c 3cf9 09be 5e87 a43c 3e3b 1dbe
000000c0: de0e 01be 46fc 803d b773 a4bd 47fd 813d
000000d0: 965b c7bd efa3 433d e532 54be 440e 3dbd
000000e0: 5310 503d 6e62 f0bd 64e0 28be f763 01be
000000f0: d832 04bd 1f7d 353d 1f43 263d 31d7 573d
0.07024471 -0.02547513 -0.07451504 -0.006189972 0.100669414 -0.029309224 -0.09595497 0.02847983
0.07773193 -0.21276586 0.12269547 0.13228749 0.12064107 0.0133784395 -0.04627836 -0.06771386
0.0031514517 -0.063246265 0.030248994 -0.18653378 -0.084483206 0.01142592 -0.032878116 -0.08745955
-0.139036 0.11923495 0.03223087 -0.091360964 0.12720983 0.23540314 -0.06475255 -0.21760164
0.134583 0.019983547 -0.08080526 0.027357634 -0.076755956 0.034238942 -0.0028159982 -0.110351376
-0.14274202 0.048816506 -0.033371896 0.1529292 0.022812862 -0.13473982 0.02008408 -0.1535463
-0.12603328 0.06298117 -0.08029883 0.06347137 -0.097342655 0.04776376 -0.2072254 -0.046156183
0.050796818 -0.11737524 -0.16491848 -0.1263579 -0.03227505 0.044308778 0.040591355 0.052695457

fc2.weight f4 [64, 64]
00000000: 2763 883d d00a 6dbd 7d3b 413e ac51 163e
00000010: e063 29bd 1d2b 7ebd 8def 60bd 4a9b 64bd
00000020: 2983 f1bd a300 01be c360 143d 3856 ddbd
00000030: b9e3 423c a9c5 5b3d 7a53 f6bb 2fc3 9bbe
00000040: a6b5 cdbd 2745 7fbe be6a 493d c03a 513e
00000050: b687 d3bd 583b 343e d9ae e53a 2a9e 303d
00000060: 8606 c2bd 3ed5 60bc fe9a 9c3e 599a 11bf
00000070: f3e5 3fbc 9545 16be 6f5a 423c 70cb d9bc
00000080: 5340 f83d f0d5 2c3e 8399 963e 52c7 0bbe
00000090: a40a 0bbe 759b a0be 1e09 9abc cf76 46be
000000a0: 05d0 c9bd 2492 503d f92d b13d 9c5d 1cbe
000000b0: 11b9 a73e 6874 74bc edd7 ff3c 4d03 babd
000000c0: 079c 1cbe 24f5 4dbd 7b66 033e 3651 7ebc
000000d0: bc0d 11be ef57 a2be ce10 883e 10bb 323d
000000e0: a9d2 64be b56b c1bd 5dfe e8bd e778 00bc
000000f0: 5311 dc3d 1b78 973d 1de1 83be 05ef 843e
00000100: 4092 9d3d 2dfa ed3d ace7 babe 6edc d73c
00000110: 178e 94bc db82 e03c affa 95bd 7a13 3ebd
00000120: 4508 d1bd 136a 9a3d 482a b33b 581f 083e
00000130: fab7 a0bd 218e 24bd 6d6c d9be f1e4 a4be
00000140: 5aee 913e 0ff1 2d3e 1e65 5abe 834e 62bd
00000150: 6eda a2bb 03e0 16bb 9fd9 46be 4afa 6dbe
00000160: 4065 d9bc dbc3 a03d 5afa 0abe f568 8abe
00000170: e00f 4e3e 2117 ef3d 3f4a 8cbd c2bc 3bbd
00000180: 2466 0dbd 928b 263e ea4a 133e ab54 623d
00000190: 9743 043e f60b 9bbd 8199 16bc ce7d c9bd
000001a0: 0a1e b4bb 7753 453e 14cf c03c ff9f 0abe
000001b0: 546a 0ebe 53b5 02bc 44ce b3bd 18be d4b9
000001c0: ec43 d7bc 4100 bebd 8e94 1cbd a2a7 873d
000001d0: 7c75 0fbe 47ca 2e3e 11aa e43c 9085 99bc
000001e0: 73ad dfbd 7fbb c8bc 4f9f 7c3d 4cd2 2a3e
000001f0: d095 13be a264 553b 057e a13e d911 37be
00000200: 9fb7 38be 9677 4ebe 4772 653e 0112 3fbe
00000210: 2261 563b 0656 a7bd 5b43 c4bd c036 1f3e
00000220: a51d 033d cf18 243d 5c7e 2bbe 6a3c f93c
00000230: 26cf d13c c9d0 7d3e f11e c5bc 0d1b ad3d
00000240: 9e59 50be 227d 653d acad a43d e569 06be
00000250: 24e8 6dbe 2573 903d c614 f53d 33af 59be
00000260: 4f2c 81bd ed0a 213e c131 11be 186d 6e3d
00000270: e9f1 dabd c164 333e 57d4 e03d 0917 ebbd
00000280: 9df1 6cbe 4d38 0ebe 9874 2ebe 23d6 0ebd
00000290: 839d c43d 13c6 993d ed4e c53c fb96 37be
000002a0: 5c94 f63d f257 d33d db89 7fbe d698 24be
000002b0: 83af 0a3e c148 d0bc 2862 653d 1c96 cebe
000002c0: 2ad1 81be 2771 09bc de76 953d 0026 4fbd
000002d0: aded bdbe c38e 353c deab 2bbc fa34 173c
000002e0: dfda 66bd f2c2 68bd 9fc2 f0bd e9c1 b13d
000002f0: a81f c63c 58b0 123e 0080 4e3e bd70 87be
00000300: 21c0 cdbd 78a4 a73d ef32 383d 544e a5be
00000310: 1265 663e 16a4 4b3d 708d c5bd b4e3 513d
00000320: 734f 89be 69b7 91bb 26a9 71bd ba4a a5bc
00000330: a88e c83d 699b 453e 4482 cf3d f7bc 7ebe
00000340: 86d2 96bd f93a 8d3e fa5a 3dbd f355 59bd
00000350: 0d63 c03c bd1b 833e 2aae 13bf a141 f53c
00000360: 15b0 543c 7b9b 553e b9ae 0b3e f383 fe3d
00000370: 1d28 b4bd d8e3 acbd 2890 23be 0fca 0ebd
00000380: ff14 02bd 30a3 1c3d 0dcb b43e 3033 833e
00000390: 693b 37be 0ab3 d5bd 3603 d53e 429b bebd
000003a0: a7ee cabd b2f0 8abe f782 2fbd 4af8 5ebe
000003b0: 33e8 01bd a7b2 033e bf33 bdbd d907 69bc
000003c0: c1bd 79be 191b e5bd 6dc5 6fbe f3f2 e3bd
000003d0: 3622 633d 25b5 113d be50 54be 3467 a8bd
000003e0: b3c3 e9be ae45 eabd accf 2cbe 633f 30bd
000003f0: 91b6 e5bc e822 443d 9053 a7be 941b babd
0.06659537 -0.05787164 0.18870349 0.14679593 -0.041355014 -0.062052835 -0.054915953 -0.055812158
-0.11792595 -0.12597899 0.03622509 -0.108074605 0.011895114 0.0536553 -0.0075172754 -0.3042235
-0.10044412 -0.24928723 0.049174063 0.20432568 -0.10328619 0.17600763 0.0017523422 0.043119587
-0.094739005 -0.013722716 0.30587 -0.5687614 -0.011712539 -0.14674981 0.011862381 -0.026586264
0.12121644 0.16878486 0.29413995 -0.13650253 -0.13578278 -0.31368604 -0.018803176 -0.1938126
-0.0985413 0.05092062 0.08651347 -0.15270084 0.32758382 -0.014920332 0.031230891 -0.09082661
-0.15293895 -0.050282612 0.12832062 -0.015522292 -0.14165395 -0.31707713 0.2657532 0.043635428
-0.22345985 -0.094443716 -0.11376641 -0.007841325 0.10745492 0.07395955 -0.25757685 0.25963607
0.076939106 0.11619983 -0.36504877 0.026350226 -0.01813416 0.027406147 -0.07323205 -0.046405293
-0.102066554 0.07539763 0.005467687 0.13293207 -0.07847591 -0.040174607 -0.42465535 -0.32205918
0.2850216 0.16986488 -0.21327636 -0.055250656 -0.0049698865 -0.0023021705 -0.19418953 -0.23240009
-0.026537538 0.078498565 -0.13572064 -0.270332 0.20123243 0.11674333 -0.06850099 -0.04583431
-0.034521237 0.1626418 0.14384046 0.055256527 0.12916408 -0.07570641 -0.009191872 -0.098384485
-0.005496745 0.1927012 0.023536243 -0.13537596 -0.13907748 -0.007977801 -0.087795764 -0.00040577422
-0.026277505 -0.09277392 -0.03822761 0.0662377 -0.1400966 0.1706935 0.027913125 -0.018740445
-0.10921755 -0.024503468 0.061675366 0.16681784 -0.14412618 0.0032561203 0.31541458 -0.17877902
-0.18038796 -0.20162806 0.22406875 -0.18659212 0.0032711704 -0.081707045 -0.095831595 0.15548229
0.032010693 0.04006272 -0.16747421 0.030424315 0.025611471 0.24786676 -0.024062606 0.08452425
-0.20346686 0.05602754 0.08040938 -0.13126333 -0.23233086 0.07053212 0.11966853 -0.2125824
-0.06307279 0.15726824 -0.14179136 0.05820951 -0.10690672 0.17518903 0.109780006 -0.11479003
-0.23139043 -0.13888665 -0.17036664 -0.034872185 0.096003555 0.07508483 0.024085486 -0.17928688
0.12040016 0.103195086 -0.24954931 -0.16073927 0.13543515 -0.025425317 0.056001812 -0.403489
-0.25354892 -0.008388794 0.07298063 -0.05057335 -0.37095395 0.0110814 -0.010477988 0.009228939
-0.056361075 -0.05682654 -0.11755871 0.086795636 0.024185017 0.14325082 0.20166016 -0.264532
-0.10046411 0.08185667 0.04497045 -0.32286322 0.22499493 0.04971703 -0.09646118 0.051242545
-0.26818427 -0.004446913 -0.058999203 -0.020177234 0.097928345 0.19297566 0.10132268 -0.24876772
-0.07364373 0.27584055 -0.04622934 -0.053060483 0.023484731 0.256071 -0.5768763 0.02993852
0.012981434 0.20860092 0.1364087 0.12427511 -0.087967135 -0.08441895 -0.1597296 -0.034860667
-0.031758305 0.038241565 0.35311165 0.2562499 -0.17893757 -0.104345396 0.41604012 -0.09306957
-0.099088006 -0.2713676 -0.042849507 -0.21774402 -0.031715583 0.12861119 -0.092383854 -0.014223062
-0.24388792 -0.11186809 -0.23415156 -0.11130323 0.055452548 0.035573144 -0.20733926 -0.082228094
-0.4565712 -0.114390716 -0.16876096 -0.0430292 -0.028041156 0.04788485 -0.3268094 -0.09087291

fc2.bias f4 [64]
00000000: e4b3 37bd b5a8 a03d 51aa 583d c381 bfbc
00000010: 75e1 4b3e 0780 e0bd dcf1 4abe 7d17 c23b
00000020: 9672 683e d349 f03e 4144 02bd 462e 413e
00000030: 6fea de3d e231 183d 7bce 0bbe 133d f3bd
00000040: 0e16 f03b d30b 0cbd 7ea7 7fbc 0f4b 563e
00000050: 3089 db3e 22c0 c03e 480c c4bd 9f2d 40be
00000060: 9087 1abe 81ca 39be 96f9 e93d 8253 35bd
00000070: 36a7 26be b53f c53d ac97 67bc 6232 3d3d
00000080: d066 6e3d b232 713e a94c f53c 28b5 d1bd
00000090: 64e9 1cbe 9394 13be 7e2f d93e c842 153d
000000a0: c5da b8bd 28d3 0d3f 17b7 563e 67c3 4bbc
000000b0: 3425 873d 4502 01be dfaa ab3e afe0 19be
000000c0: 7061 5e3d f2cc 4bbe 22f6 31be 240b d33e
000000d0: fc95 3ebd 7910 14be 2c18 943e 1e3a 22bd
000000e0: b5fa 1fbe 5d18 46be 390b 233e 281f 98ba
000000f0: 61ab 45be 2a91 ad3e e91e 933d 135a adbb
-0.04484929 0.07844678 0.0528968 -0.023377305 0.19910224 -0.10961919 -0.19818825 0.00592321
0.22699961 0.46931323 -0.031803373 0.18865308 0.108845584 0.037156947 -0.13652985 -0.11876883
0.007326848 -0.034190964 -0.015603898 0.2092707 0.42878103 0.37646586 -0.09572655 -0.18767403
-0.15090775 -0.18143655 0.11424558 -0.044269092 -0.16274723 0.09631292 -0.0141352825 0.046190627
0.05820352 0.23554495 0.029943781 -0.10239631 -0.15323406 -0.14412145 0.42419046 0.03644064
-0.09026102 0.55400324 0.2096828 -0.012436724 0.06598893 -0.12598522 0.33528802 -0.15027116
0.054292142 -0.19902399 -0.17379048 0.41219437 -0.046529755 -0.14459409 0.28924692 -0.039606206
-0.15622981 -0.19345231 0.1592225 -0.0011605965 -0.19303657 0.33899814 0.0718363 -0.0052902787

fc3.weight f4 [4, 64]
00000000: 7871 97be 0ebe 9c3d 93ce 473e 229d 223e
00000010: c359 e53d 7098 2a3c f740 9cbd d6e4 a4bd
00000020: ee8f b73d 5593 253e 96a8 353d 00a2 aa3e
00000030: d804 e83d 5eb5 3cbd c507 03bc 1eb8 f7bd
00000040: 33e5 9b3e b479 4b3d 4463 ab3e 4829 003e
00000050: 876e 0c3e 88b6 133e 6669 ee3c 0323 e9bd
00000060: c460 91be 7b10 80be 3003 5cbe 521c 843d
00000070: 0682 d23d cd90 673d 9be3 d5bc 904a e13d
00000080: 22a2 0d3e 65b1 d43d 5a14 883d cf04 7a3c
00000090: 6118 2a3c 23a8 43be a3a7 f73d c1e7 ee3d
000000a0: a350 343d b3ee 033e 71c2 b33d 1c36 b63d
000000b0: caa6 dc3d 92f2 01bd 7d42 1e3e 7185 033e
000000c0: 3352 7a3e 264b a73e 6294 7bbe 14c1 013f
000000d0: 9c1b b8bd de19 a6bd dce6 c93d 73ef 183e
000000e0: 5b0d 6cbe e99b eebd 4b70 b73d ad1b dd3d
000000f0: 5548 77be 3057 3b3e db5b cc3c 54df 943d
00000100: b273 52be 95ae 373e 46d8 333e 9d66 ff3e
00000110: 372e 513e db53 05bd 8f15 dabe 35d0 4cbe
00000120: 18a2 aabc ab44 2b3e 2aac ed3d acfc e73d
00000130: 548a 093e 9f48 783e da43 003c fbf3 44be
00000140: 3047 a63e b82a c73e b417 8a3e 1ca1 dc3d
00000150: 6854 033e 946f 383e 19b4 d03d 40f3 d9bc
00000160: 185a 93bd ee72 66be b17f 193d be5e a4be
00000170: 9d6a 53be d374 833d d653 073e 08d5 353e
00000180: 6a0a 193e 8c36 a53d c01e c83d 1f0f 37bd
00000190: 053b ee3d 91b3 87be 4c38 713e 3ead 403e
000001a0: ecef 18be 219b 2f3e f670 da3d 27dd 6e3e
000001b0: cc9d e13d 7eb0 a93c d19f 343e 2d37 e9bd
000001c0: cda0 3c3e bf00 893d 801b 37be 7feb 9c3e
000001d0: 6a90 28be 7af7 c53d d153 8b3d 046f 963d
000001e0: 979c a13c 6aa2 0ebe 096c 783d 215b 1d3d
000001f0: ca1b 00be fd58 28bb 4ceb f3bd 2df6 1a3e
00000200: c61a c3be 1929 263e b080 c8bd 27ae d93e
00000210: e9df 7a3e 64f0 4dbe ae97 89bd 0dc5 3bbe
00000220: d43c ae3d b813 143e 43f7 0dbe cc86 603e
00000230: 3f73 b93e 07b2 063d 665c 98bd bffe 24be
00000240: b599 b93e d07f a2be b79b fb3e d7e4 f7bc
00000250: b1c3 153e 84d8 883e 5d88 73be 5658 52be
00000260: d2d5 e4bd 4d92 51be fbbd 053e 4fc7 a3be
00000270: 2693 a0be 9be1 8c3e e0b2 2d3e a06e 8e3d
00000280: 839a a2bb e4c0 4d3d 9ec6 c5bc 8e4f ce3d
00000290: c2db babe aed0 b6bb 62c9 233e 828c 443e
000002a0: ca51 57bd 918b 543e f44d 603e 5d5c b13e
000002b0: 71ab 343d 72c3 e83d 82fa 143e f036 5c3e
000002c0: 3db9 843e 4007 8f3d 95a4 833d 537c 513e
000002d0: f82b e3be de69 003e 5dc9 bb3d 3216 8e3e
000002e0: 9d42 fbbd dc7b 87bd 3905 923e fb37 3cbe
000002f0: 9588 17be b9db 353e 8d0d e3be bbf5 8c3e
00000300: 9e18 09be 7be6 af3d 41fa 80bd 6951 dd3d
00000310: 0f7d 703e 439e fc3d 9c7b aabe cba0 abbd
00000320: f71d 433e 1797 703e 6679 913e daca cf3d
00000330: c196 6e3e e716 ce3e 43b4 443d 36eb 38be
00000340: a82c 9ebd 9a6b ea3e 737d b93e 8606 813e
00000350: 0de5 be3d 3113 773e ea03 3d3e b2ad 86be
00000360: e3a5 dbbd ef9a 0abe c360 a3bd 4df6 bf3e
00000370: 33da af3d 6fa2 26bd d9af a0be c337 923d
00000380: d909 45be 8db8 503e 5a06 16be 0380 7e3c
00000390: 19d7 0fbd c67d 2cbe 1987 6b3e 2fc3 b53d
000003a0: 2594 d0be bf31 553e 0d74 4b3e 6dd0 3fbc
000003b0: 0f8d 1c3f ef0f e7be ac68 303e 925d f53d
000003c0: 9e7a de3d 5f13 48be 9a71 93be c483 6f3e
000003d0: 722f 413e 8544 afbd c8db 0b3e 397d a93d
000003e0: 1979 fdbd 99d4 4bbe 9d70 9cbb 5a01 a5be
000003f0: 4c4b 61be 6e9d ae3b b174 23be 84d8 ae3e
-0.29578757 0.076534376 0.19512396 0.15880254 0.11198761 0.0104123205 -0.076295786 -0.080514595
0.08962999 0.16169484 0.04435023 0.3332672 0.11329049 -0.046071403 -0.007997458 -0.120956644
0.30448303 0.049676612 0.3347417 0.12515748 0.13714038 0.14425099 0.029102992 -0.11383631
-0.2839414 -0.25012574 -0.21485591 0.06450714 0.10278706 0.056534577 -0.026109507 0.1100055
0.1383138 0.10385398 0.06644507 0.0152599355 0.010381789 -0.19107108 0.12092521 0.11665297
0.044022214 0.12884025 0.08777321 0.08897039 0.10774 -0.031725474 0.15455051 0.12843873
0.24445419 0.3267452 -0.24568322 0.5068524 -0.08989641 -0.081104025 0.09858486 0.14935093
-0.2305197 -0.11650831 0.08956965 0.10796294 -0.24148686 0.18294978 0.024946144 0.07269159
-0.20551947 0.17937692 0.1756297 0.49882975 0.20427786 -0.032550674 -0.42594573 -0.200013
-0.020829245 0.16725414 0.11605103 0.1132749 0.13431674 0.24246453 0.007828677 -0.19233696
0.32476187 0.3889978 0.2697121 0.10772917 0.12825167 0.18011314 0.10190601 -0.026605248
-0.071949184 -0.2250478 0.03747529 -0.32103533 -0.20646138 0.06418767 0.13215575 0.17757046
0.14945379 0.080670446 0.0977149 -0.044692155 0.11632351 -0.26504186 0.23556632 0.18816087
-0.14935273 0.1714902 0.10666077 0.2332655 0.110164255 0.02071404 0.1763909 -0.11387477
0.18420716 0.066895954 -0.17881584 0.3064842 -0.1646134 0.09666343 0.06803096 0.07345393
0.019727988 -0.13929144 0.060649905 0.038416985 -0.125106 -0.0025687807 -0.11910114 0.15132971
-0.38106364 0.16226615 -0.0979017 0.4251568 0.24499477 -0.20111233 -0.06718384 -0.18336888
0.08507696 0.14460647 -0.13863854 0.21926421 0.36220738 0.032884624 -0.074394986 -0.16112803
0.36250082 -0.31738138 0.49142238 -0.030260487 0.14625432 0.26727688 -0.23782487 -0.2054151
-0.111735955 -0.20465966 0.13060753 -0.31987998 -0.31362265 0.27515873 0.16962767 0.06954694
-0.004962267 0.050232783 -0.02414256 0.100737676 -0.36495787 -0.005579076 0.1599479 0.19194224
-0.052568235 0.20756365 0.21904737 0.3464078 0.04410881 0.11365403 0.14548686 0.21505332
0.25922576 0.06983805 0.06427876 0.20457582 -0.44369483 0.12540385 0.091692664 0.2775131
-0.12268565 -0.06615421 0.2851961 -0.1838073 -0.14798196 0.17759599 -0.44346276 0.27531227
-0.13388297 0.085888825 -0.06297732 0.108065434 0.23485206 0.123348735 -0.3329743 -0.08380278
0.190544 0.23495136 0.28412932 0.10146113 0.23299696 0.40251848 0.048023473 -0.18058476
-0.07723361 0.45785218 0.36228523 0.2520029 0.09321032 0.24128415 0.18458524 -0.26304394
-0.10725 -0.13535665 -0.0797744 0.374926 0.0858654 -0.040682252 -0.3138416 0.07139542
-0.19242038 0.203829 -0.1465086 0.01553345 -0.035117242 -0.16844854 0.23000754 0.08875119
-0.40738025 0.20819758 0.19868489 -0.011707407 0.6115274 -0.45129344 0.17227429 0.11980738
0.10863231 -0.1953864 -0.2879761 0.23390108 0.18865755 -0.08557991 0.13658059 0.082758375
-0.12376613 -0.19905318 -0.0047741667 -0.32227594 -0.2200138 0.0053288257 -0.15962483 0.34149563

fc3.bias f4 [4]
00000000: 5d43 b23e 1987 8e3e 31ce 6f3e ca92 3d3e
0.3481702 0.27837446 0.234185 0.18513027
