checkpoint - 2.pth (torch_old, 28451 bytes, 6 tensors)

fc1.weight f4 [64, 37]
-0.10387578 0.13341127 -0.1157952 0.108961605 -0.11628308 0.08011129 -0.1427129 0.13680793
0.29328874 -0.09741514 -0.08752451 -0.0016983141 -0.09871188 -0.06214004 0.01767863 -0.04962724
0.12879156 0.14924176 0.03201009 0.11522275 0.11760322 0.17256716 -0.13925932 0.26874846
0.09868758 -0.0763408 -0.014088627 0.14603429 -0.0010133006 0.14921829 0.007731375 0.10885038
0.024831327 -0.18812214 -0.07090367 -0.14345266 -0.044842534 0.21651708 0.055897307 0.047911216
-0.023610367 -0.14172821 0.067966715 -0.19310325 -0.13459006 -0.20005848 -0.12394671 0.119040154
-0.06960709 -0.093656816 0.16088797 0.05351178 0.013698044 0.12792102 0.017399384 0.060715713
0.19983281 -0.07890084 -0.06866155 -0.13613935 0.046167146 0.2492813 -0.23285 0.15397565
0.13512076 0.14194639 0.25622627 -0.062170044 0.14311294 0.19058718 0.11580944 0.20632643
0.0926043 0.029990343 0.11532021 0.03450783 0.07520868 -0.18186997 0.0024457597 -0.08455062
-0.4144739 0.40121835 -0.025463566 -0.2535867 0.06739853 -0.07391278 0.07808469 -0.24838603
0.19210704 -0.11916163 0.032247957 0.1998073 -0.0345407 0.1814215 -0.17667675 0.07171096
0.00062191853 0.017197337 -0.022871308 -0.04195481 -0.1323575 0.23327537 0.06874162 -0.010155213
-0.029618967 -0.21832065 -0.13369918 -0.07144944 -0.009802127 -0.09051788 -0.06737013 0.08517998
0.029926341 0.2360035 0.021145057 -0.1508043 -0.05872582 0.18512025 -0.030604295 0.049860027
0.52425784 0.00017348106 -0.04648437 0.08504819 -0.24579538 -0.0010194117 -0.01846374 0.09746095
-0.09033921 -0.17806782 -0.12351374 0.12063637 -0.08871102 -0.0133024445 -0.039946396 -0.08546098
-0.00060960464 0.098621294 0.02371088 0.05420323 0.11903211 0.13113739 0.2591906 -0.024237433
-0.49882793 -0.091527894 -0.032591406 0.010285864 -0.11435551 -0.12352318 -0.13607323 -0.09071509
-0.010435222 0.1876516 -0.20669569 -0.20222686 -0.55219924 -1.6624801 -0.05866106 -0.004711565
-0.012128346 -0.06552094 -0.19690187 -0.11788594 -0.0116752405 -0.018089497 -0.12929161 -0.0044253883
-0.14062454 0.027698211 0.059710458 -0.047296714 0.06648634 0.010676685 0.006160933 0.123989135
-0.115193404 -0.19606617 0.039306298 -0.08019704 0.12576239 -0.065621994 0.0062826197 0.23946851
0.075098716 0.03570965 -0.018306954 -0.02517938 -0.02322657 0.08415882 0.27894226 -0.1205417
-0.34557313 -0.16036284 -1.1086237 -0.07815964 -0.091421 0.13204 -0.02650355 0.082245015
-0.0077387793 0.13898346 -0.05717795 -0.091029406 -0.002116073 0.20974682 -0.07650532 0.12721021
-0.048469916 0.08009525 0.051521853 -0.046458684 -0.018373 0.048854906 -0.05972019 0.024323503
-0.05846942 -0.07756315 0.19597849 -0.16385189 0.020419914 0.09061318 -0.055818163 0.20294794
-0.1532329 -0.36146873 -0.1309758 0.02992272 -0.30094665 -0.08564751 0.08896722 -9.846599e-05
-0.09239469 0.032496095 0.29428738 -0.41778615 -0.057098705 -0.22991031 -0.26630095 0.072395094
0.16004722 0.1090759 -0.00077638094 -0.043320876 -0.046014797 -0.3571738 0.14269832 0.007305576
-0.07270653 -0.19382006 -0.17915 0.05063027 0.21666153 -0.05306541 -0.20417881 -0.15265849
00000000: d3bc d4bd f79c 083e 0926 edbd 4327 df3d
00000010: d325 eebd 6311 a43d 5523 12be 6117 0c3e
00000020: f129 963e 9781 c7bd 0d40 b3bd f799 deba
00000030: 7429 cabd 8e86 7ebd c6d2 903c ef45 4bbd
00000040: efe1 033e d5d2 183e 031d 033d e8f9 eb3d
00000050: f5d9 f03d 72b5 303e ff99 0ebe 6699 893e
00000060: b71c ca3d 9158 9cbd fcd3 66bc 038a 153e
00000070: bad0 84ba aecc 183e 7957 fd3b f3ec de3d
00000080: 116b cb3c 17a3 40be f135 91bd 41e5 12be
00000090: ceac 37bd a7b6 5d3e 93f4 643d 8d3e 443d
000000a0: 876a c1bc 3321 11be 2232 8b3d dcbc 45be
000000b0: fad1 09be 21dc 4cbe c6d7 fdbd 53cb f33d
000000c0: 298e 8ebd 25cf bfbd d1bf 243e 2b2f 5b3d
000000d0: c36d 603c bafd 023e 2789 8e3c 0ab1 783d
000000e0: f9a0 4c3e c396 a1bd 6d9e 8cbd 1d68 0bbe
000000f0: c319 3d3d 9943 7f3e 3b70 6ebe cbab 1d3e
00000100: 195d 0a3e 655a 113e 1730 833e 04a6 7ebd
00000110: 338c 123e 4929 433e 802d ed3d 3c47 533e
00000120: 53a7 bd3d 4fae f53c 012d ec3d 1558 0d3d
00000130: 0207 9a3d 1f3c 3abe 0a49 203b e028 adbd
00000140: ec35 d4be 7e6c cd3e f898 d0bc 1ed6 81be
00000150: 3e08 8a3d 955f 97bd deea 9f3d e858 7ebe
00000160: b5b7 443e 030b f4bd 6f16 043d 499a 4c3e
00000170: 8d7a 0dbd 8fc6 393e c0ea 34be 32dd 923d
00000180: 3f08 233a 6ee1 8c3c 9c5c bbbc cfd8 2bbd
00000190: b988 07be bddf 6e3e 68c8 8c3d 0d62 26bc
000001a0: 7aa3 f2bc 738f 5fbe 70e8 08be 1654 92bd
000001b0: 1a99 20bc 7061 b9bd 5af9 89bd d772 ae3d
000001c0: 1628 f53c e7aa 713e 6638 ad3c 716c 1abe
000001d0: 7c8a 70bd 2a90 3d3e dcb5 fabc 073a 4c3d
000001e0: c335 063f 78e8 3539 6566 3ebd bf2d ae3d
000001f0: c9b1 7bbe c89d 85ba 4541 97bc 9b99 c73d
00000200: c403 b9bd 6957 36be c6f4 fcbd 3310 f73d
00000210: 20ae b5bd 7ff2 59bc d59e 23bd 2b06 afbd
00000220: e0cd 1fba f6f9 c93d 523d c23c 3504 5e3d
00000230: 1bc7 f33d e148 063e a1b4 843e 958d c6bc
00000240: 6066 ffbe fa72 bbbd 917e 05bd 0a86 283c
00000250: 3933 eabd b9f9 fcbd c856 0bbe d5c8 b9bd
00000260: 7ef8 2abc be27 403e 09a8 53be 8f14 4fbe
00000270: ee5c 0dbf 26cc d4bf 9446 70bd 7963 9abb
00000280: f8b5 46bc d82f 86bd a5a0 49be 2f6e f1bd
00000290: 8249 3fbc 6d30 94bc 0565 04be d902 91bb
000002a0: e1ff 0fbe 5ce7 e23c f492 743d 33ba 41bd
000002b0: fd29 883d 43ed 2e3c a7e1 c93b 04ee fd3d
000002c0: 85ea ebbd 92c5 48be a4ff 203d 593e a4bd
000002d0: dbc7 003e d364 86bd 6fde cd3b 3c37 753e
000002e0: 5bcd 993d 4844 123d 77f8 95bc fd44 cebc
000002f0: a645 bebc 765b ac3d 85d1 8e3e 91de f6bd
00000300: f6ee b0be 2836 24be 62e7 8dbf 2912 a0bd
00000310: ef3a bbbd 7e35 073e f91d d9bc 1370 a83d
00000320: 9695 fdbb ae51 0e3e 6d33 6abd a06d babd
00000330: d0ad 0abb dfc7 563e d2ae 9cbd 6543 023e
00000340: 6488 46bd fa08 a43d 9408 533d 764b 3ebd
00000350: f982 96bc 151c 483d 289d 74bd 1542 c73c
00000360: a17d 6fbd 6ed9 9ebd 96ae 483e cac8 27be
00000370: aa47 a73c 6793 b93d 96a1 64bd 96d1 4f3e
00000380: 16e9 1cbe 6e12 b9be 851e 06be 7e20 f53c
00000390: ae15 9abe f667 afbd 7234 b63d 877f ceb8
000003a0: 6d39 bdbd a01a 053d d6ac 963e 11e8 d5be
000003b0: 55e0 69bd 9c6d 6bbe 9958 88be e143 943d
000003c0: 6be3 233e 2f63 df3d 0b86 4bba 3b71 31bd
000003d0: 037a 3cbd 7cdf b6be 821f 123e 9d63 ef3b
000003e0: 29e7 94bd c478 46be 1973 37be b061 4f3d
000003f0: 85dc 5d3e 1e5b 59bd 4014 51be 8252 1cbe

fc1.bias f4 [64]
0.17092171 -0.012281001 -0.16899148 -0.039720003 0.16920692 -0.007957811 -0.12680891 0.022232229
-0.008227071 -0.12663645 0.1232203 0.13420661 0.14840814 0.14510916 -0.07358558 -0.07819142
0.06321954 -0.05706322 0.007194474 -0.25333452 -0.10601342 0.04090652 0.027491748 -0.08665851
-0.10158882 0.19231819 0.007566977 -0.11337938 0.118763685 0.17682932 -0.07759414 -0.12800585
0.14712936 0.010725897 -0.04062413 0.081616245 -0.0652763 0.048640523 -0.073028766 -0.15232916
-0.13231917 -0.017572867 -0.111350454 0.20696808 0.015548158 -0.084342964 0.037275117 -0.16922943
-0.1304015 0.029767271 -0.18489459 0.052737646 -0.01970592 -0.0026915015 -0.13871868 0.03515186
0.058026556 -0.012551978 -0.13428105 -0.12883623 0.042254314 -0.005774918 0.038246173 0.012873905
00000000: 1a06 2f3e 4036 49bc 1a0c 2dbe 71b1 22bd
00000010: 9444 2d3e 7a61 02bc 32da 01be 5d20 b63c
00000020: d6ca 06bc fcac 01be ed5a fc3d 756d 093e
00000030: 4ef8 173e 7f97 143e 09b4 96bd d322 a0bd
00000040: 3f79 813d 1fbb 69bd 9fbf eb3b 10b5 81be
00000050: 901d d9bd 988d 273d 6036 e13c 047a b1bd
00000060: cd0d d0bd 0fef 443e 67f4 f73b 7333 e8bd
00000070: 603a f33d bf12 353e ade9 9ebd f713 03be
00000080: 14a9 163e acbb 2f3c 7d65 26bd 6b26 a73d
00000090: 95af 85bd 493b 473d 1b90 95bd 2dfc 1bbe
000000a0: ad7e 07be f9f4 8fbc b50b e4bd 71ef 533e
000000b0: b4bd 7e3c 01bc acbd cbad 183d 7b4a 2dbe
000000c0: f987 05be 7eda f33c 0255 3dbe 6e03 583d
000000d0: 4f6e a1bc e763 30bb 450c 0ebe 66fb 0f3d
000000e0: 41ad 6d3d d0a6 4dbc f980 09be a5ed 03be
000000f0: dc12 2d3d 863b bdbb 05a8 1c3d 12ed 523c

fc2.weight f4 [64, 64]
-0.08875377 -0.16943434 -0.032868 0.06452623 -0.15221657 -0.11897223 -0.19178446 0.14909892
0.019519059 0.09058829 0.004809421 -0.4074803 -0.057893172 0.050436154 -0.09200932 -0.061492555
-0.25074077 -0.15858062 0.07016455 -0.17328098 -0.32077608 -0.2593622 0.103071004 -0.005141443
0.06550823 0.07476216 0.17385973 0.0057100332 -0.38247487 0.07248654 0.1500774 0.023357654
-0.11105642 0.008469394 0.024881678 -0.14540447 -0.11305132 0.1530331 0.12154967 -0.08257921
-0.16681287 -0.2672664 -0.012177251 0.060492076 0.21232499 0.03003945 0.0038121915 -0.06138786
-0.24831183 -0.015059473 -0.018538905 -0.01882834 -0.20988742 -0.16569045 0.27598485 0.014077591
-0.4369743 -0.12260437 -0.13612694 -0.14078055 0.0036081318 0.1500014 -0.027904253 -0.03618431
0.078453 0.08185972 -0.33597243 -0.0032831884 0.19244042 0.092879005 0.15930629 0.114603914
-0.036355913 0.015744247 -0.07372961 0.10827131 -0.20910677 0.14520411 0.13705122 -0.210667
-0.036201436 0.06799045 -0.05136 -0.09421818 0.014669431 -0.112397276 0.16202217 0.14242229
-0.015942689 0.1980079 -0.31563014 -0.06730762 0.07551751 0.087342806 -0.068698496 -0.27570096
-0.117749825 0.07124148 0.07057532 -0.0768723 0.072759256 0.10063993 -0.045798324 -0.16286373
0.13182579 -0.024274444 -0.1917178 -0.056721613 -0.19657364 -0.15542427 -0.16447249 -0.045438033
-0.023160776 -0.13614535 -0.016141105 0.10609951 -0.108952194 0.003968916 0.057807017 0.023357932
-0.048812933 0.023246087 0.12324517 -0.14505668 -0.10012152 0.032047227 -0.048956033 0.04855673
-0.10624291 -0.111386746 0.06187665 -0.0739694 0.09479337 0.098287046 -0.16113347 -0.09050061
0.10009278 -0.043756854 0.280208 -0.014113898 -0.016443776 0.11972099 0.08546383 -0.0257241
-0.0951409 0.076968394 -0.07134651 -0.0022878484 -0.09368043 0.09910304 0.050898455 0.034451906
-0.0061933445 0.20487481 0.008744036 0.1282023 -0.016444575 0.2715956 0.22599393 -0.050636627
-0.044035282 -0.06937104 -0.04245956 0.039971553 -0.06895797 0.07709343 -0.17030239 0.061900746
0.22370777 -0.15785727 -0.028094543 -0.032179125 -0.012016419 -0.13772626 0.066970296 -0.066507846
0.08036217 -0.1318234 -0.13687819 0.032012645 -0.11301775 -0.07152448 -0.30384696 -0.022813594
-0.0008653761 -0.15321296 0.13803013 0.15110989 -0.060818147 -0.011174059 0.16543983 0.18418266
-0.27985373 -0.20467891 -0.25434738 -0.15589711 0.15390897 -0.038250938 0.19215222 -0.037895728
-0.23745497 -0.24788716 0.0646987 0.25677195 -0.11055897 0.06598901 -0.22706755 -0.61825615
0.08002919 0.017048078 -0.018866697 -0.254313 -0.003219566 0.21875787 -0.021887375 0.2885346
0.12463712 -0.1953259 0.2191626 -0.20348723 0.33374304 -0.11596042 -0.28297198 0.2226151
0.023980435 -0.1375227 0.14047144 0.19028613 -0.25899404 0.02874937 0.076613076 0.0011363357
-0.34527504 0.26252308 0.41889116 -0.08612609 0.044944275 0.035611823 -0.11745539 -0.084855735
-0.00694459 -0.250205 -0.37012228 0.005571171 0.06847191 -0.11595613 0.0028097394 0.11423821
-0.032013528 0.09328898 -0.26911235 -0.021301273 -0.31584918 0.16171907 -0.10644255 -0.26610917
00000000: 89c4 b5bd 3280 2dbe 99a0 06bd 5426 843d
00000010: a9de 1bbe b6a7 f3bd 2563 44be 63ad 183e
00000020: 6fe6 9f3c 5a86 b93d 5998 9d3b 42a1 d0be
00000030: 6421 6dbd 2496 4e3d 626f bcbd 9edf 7bbd
00000040: 1861 80be f562 22be 6eb2 8f3d 9270 31be
00000050: c33c a4be 1fcb 84be e416 d33d 8d79 a8bb
00000060: 2e29 863d e71c 993d 4908 323e 3b1b bb3b
00000070: bfd3 c3be d373 943d e4ad 193e 8d58 bf3c
00000080: 8c71 e3bd 37c3 0a3c a9d4 cb3c e9e4 14be
00000090: 7387 e7bd b5b4 1c3e 09ef f83d 4a1f a9bd
000000a0: fed0 2abe 24d7 88be 1883 47bc 8ac6 773d
000000b0: b96b 593e 4b15 f63c f6d5 793b d671 7bbd
000000c0: 7545 7ebe 02bc 76bc e7de 97bc e43d 9abc
000000d0: baec 56be c2aa 29be e34d 8d3e b2a5 663c
000000e0: 18bb dfbe 0018 fbbd dc64 0bbe c728 10be
000000f0: 6876 6c3b f899 193e 7697 e4bc 0036 14bd
00000100: f7ab a03d 12a6 a73d 9404 acbe c32a 57bb
00000110: 1a0f 453e 5937 be3d 3021 233e 75b5 ea3d
00000120: f0e9 14bd 14fa 803c 8dff 96bd 59bd dd3d
00000130: 1620 56be 63b0 143e 2857 0c3e 17b9 57be
00000140: f547 14bd 943e 8b3d dd5e 52bd 76f5 c0bd
00000150: 0e58 703c 8b30 e6bd 24e9 253e 26d7 113e
00000160: 3e9a 82bc 95c2 4a3e 469a a1be 94d8 89bd
00000170: eda8 9a3d c9e0 b23d ccb1 8cbd ad28 8dbe
00000180: d226 f1bd 0ee7 913d cb89 903d 396f 9dbd
00000190: ce02 953d 4f1c ce3d 0697 3bbd c0c5 26be
000001a0: 57fd 063e 33db c6bc ac51 44be ec54 68bd
000001b0: 9a4a 49be 8a27 1fbe 7a6b 28be 3b1d 3abd
000001c0: abbb bdbc b069 0bbe 5a3a 84bc b34a d93d
000001d0: 5422 dfbd ae0d 823b 0dc7 6c3d 2259 bf3c
000001e0: 12f0 47bd 946e be3c f767 fc3d bd89 14be
000001f0: 830c cdbd f443 033d 1f86 48bd 6ce3 463d
00000200: e295 d9bd bc1e e4bd 5f72 7d3d 457d 97bd
00000210: 0723 c23d b84a c93d 2c00 25be 6258 b9bd
00000220: 72fd cc3d 633a 33bd 6c77 8f3e fb3d 67bc
00000230: 19b5 86bc 4730 f53d a907 af3d 59bb d2bc
00000240: 3bd9 c2bd 9ba1 9d3d 1e1e 92bd baef 15bb
00000250: 86db bfbd 89f6 ca3d e67a 503d 711d 0d3d
00000260: 8af1 cabb b4ca 513e 2543 0f3c 7747 033e
00000270: c6b6 86bc 940e 8b3e f46a 673e 5a68 4fbd
00000280: 575e 34bd 6712 8ebd 13ea 2dbd 36b9 233d
00000290: d639 8dbd 29e3 9d3d c063 2ebe a38b 7d3d
000002a0: a613 653e 56a5 21be 8726 e6bc 42ce 03bd
000002b0: 84e0 44bc 1d08 0dbe b927 893d 4435 88bd
000002c0: ec94 a43d b7fc 06be cc29 0cbe b11f 033d
000002d0: da75 e7bd 6d7b 92bd d491 9bbe 93e3 babc
000002e0: 68da 62ba dce3 1cbe c557 0d3e 8dbc 1a3e
000002f0: 731c 79bd 6613 37bc 0f69 293e 619a 3c3e
00000300: fd48 8fbe 5997 51be d239 82be 7ea3 1fbe
00000310: 509a 1d3e 04ad 1cbd 8dc3 443e 8d38 1bbd
00000320: 6527 73be 22d6 7dbe c180 843d 9d77 833e
00000330: be6c e2bd 3f25 873d 6584 68be 0946 1ebf
00000340: 58e6 a33d 69a8 8b3c 558e 9abc 5035 82be
00000350: 5bff 52bb 1002 603e 274d b3bc cfba 933e
00000360: bf41 ff3d 8303 48be 296c 603e f55e 50be
00000370: 5ee0 aa3e a87c edbd b4e1 90be 36f5 633e
00000380: 9e72 c43c c0d2 0cbe bfd7 0f3e 5eda 423e
00000390: de9a 84be cc83 eb3c 51e7 9c3d 19f1 943a
000003a0: e4c7 b0be 6d69 863e e778 d63e e062 b0bd
000003b0: 7d17 383d b4dd 113d 748c f0bd d8c8 adbd
000003c0: 718f e3bb df1a 80be ab80 bdbe 5f8e b63b
000003d0: 003b 8c3d 687a edbd 9b23 383b b9f5 e93d
000003e0: 9e20 03bd 4b0e bf3d 18c9 89be 0280 aebc
000003f0: fcb6 a1be af99 253e 8dfe d9bd 763f 88be

fc2.bias f4 [64]
-0.037917532 -0.046123054 0.0750862 0.023633141 0.10611922 -0.15136433 -0.12944299 0.019131899
0.10148533 0.27126488 -0.04317761 0.17513396 0.04722107 -0.1283236 -0.019007338 -0.06055716
0.05099091 -0.048626874 0.014139093 0.030438568 0.12648898 0.18713158 -0.09949613 -0.14254452
-0.10222993 -0.070804775 0.1135998 -0.055124808 -0.02215945 0.1460447 0.049888663 -0.007887475
0.004328572 0.10865136 0.042151622 -0.10839698 -0.15071319 -0.1956683 0.04788247 -0.0110352235
-0.036892463 0.32279027 0.15552351 -0.057833347 0.01846348 -0.14177594 0.14772949 -0.08141329
0.06466174 -0.07441482 -0.11307836 0.2922243 -0.070977226 -0.11450392 0.02789331 -0.1376112
-0.13982823 -0.10967008 0.16236852 -0.030545508 -0.0012626128 0.21387926 0.12661095 -0.050235275
00000000: 6a4f 1bbd 87eb 3cbd cbc6 993d 4a9a c13c
00000010: 0955 d93d 40ff 1abe b48c 04be 80ba 9c3c
00000020: 8ad7 cf3d 3be3 8a3e 01db 30bd 5156 333e
00000030: e16a 413d 4367 03be 47b5 9bbc c90a 78bd
00000040: d8db 503d f92c 47bd a8a7 673c 4e5a f93c
00000050: 5486 013e 6c9f 3f3e a1c4 cbbd 31f7 11be
00000060: ed5d d1bd 1802 91bd 03a7 e83d 8dca 61bd
00000070: bc87 b5bc be8c 153e 0e58 4c3d 783a 01bc
00000080: b2d6 8d3b 9b84 de3d 2ea7 2c3d 3cff ddbd
00000090: 8f54 1abe 455d 48be 6920 443d 15cd 34bc
000000a0: 8d1c 17bd c444 a53e 8e41 1f3e a9e2 6cbd
000000b0: b940 973c b62d 11be 6646 173e 03bc a6bd
000000c0: 606d 843d cc66 98bd a195 e7bd 6c9e 953e
000000d0: 825c 91bd 0881 eabd 8380 e43c f3e9 0cbe
000000e0: 222f 0fbe b59a e0bd ef43 263e 933a fabc
000000f0: 417e a5ba 2a03 5b3e 4da6 013e 81c3 4dbd

fc3.weight f4 [4, 64]
-0.26213738 0.13606708 0.09979372 -0.6112406 0.25139463 -0.061715093 0.11869216 -0.094232805
0.09998044 0.09562115 -0.08080998 0.21742903 0.015095914 -0.33678088 -0.13338378 0.086734116
0.07570423 0.17373048 -0.25229096 0.09750919 0.032837387 0.15237819 -0.06354777 -0.075344436
0.07748118 -0.07635089 -0.024665508 -0.033285838 0.14592673 0.24935499 -0.14113447 0.07676774
0.19971688 0.09076318 0.08128628 0.019668685 -0.06224944 -0.2659661 0.060924437 0.17491367
0.17180097 0.06874697 -0.027069548 0.041838426 0.13520831 -0.1338966 0.105703 0.22356229
-0.10635756 0.11095983 -0.104217105 0.26187626 0.25001794 -0.17700833 0.0149519155 -0.18813756
-0.031470478 0.28571036 0.27457824 0.22249949 -0.43873066 0.15071125 0.16969882 0.15227047
0.16496715 -0.13095333 0.10340786 -0.018402701 0.044996344 -0.056929015 -0.00057474524 -0.06888619
0.10910873 0.10706202 0.035067517 0.37570423 0.103770204 -0.019665783 -0.43556038 0.21443312
-0.4145888 0.33897305 -0.50015175 0.05843118 0.04741397 0.14461322 0.014114353 -0.05190493
0.8958427 -0.07526996 0.039489646 0.083317675 0.025102664 0.16166988 0.02380732 0.103239305
-0.21574968 -0.2590162 0.12935953 -0.049037915 0.085422195 -0.16009392 0.22388415 0.11967325
0.056759194 0.10519343 -0.004302481 0.39238963 -0.075947225 -0.15471008 0.13451067 -0.08907131
0.043232873 0.17424037 0.05910657 0.14894769 0.16752248 -0.16853608 0.31168148 -0.028192135
-0.06487458 -0.026183736 0.1625268 0.05899833 0.0013133298 -0.056683846 -0.3816082 0.2201499
-0.2688299 0.2646291 0.18823515 -0.047396164 0.24687237 0.029938824 0.10486331 0.16488904
0.0040112757 0.0914917 -0.015697584 0.5527025 0.5580451 -0.019251531 -0.35612008 -0.08877317
0.24439037 -0.13068263 -0.18164983 0.12805852 0.14492096 0.22871125 -0.2924941 -0.4134469
0.07559188 -0.02527418 0.19330011 -0.21656129 0.18777767 0.16116342 -0.01424938 -0.06788702
-0.15748781 -0.033611204 0.16537891 0.10161327 0.24030855 -0.1669248 0.08448115 0.12419
0.10895386 0.15283902 0.13248676 0.030395316 -0.05465732 -0.21458931 0.12530038 0.31523764
0.19573767 -0.1076889 -0.11294506 0.22796644 0.16086254 -0.18268386 0.10521616 -0.017331894
-0.13852166 -0.09787723 0.09041068 0.272959 -0.10738414 0.124146044 -0.1995243 -0.13959979
0.018677017 0.21412738 -0.072534546 -0.4374911 -0.025747871 -0.15757151 -0.0683365 0.20671415
0.27460748 0.20412745 0.2577904 -0.32202855 0.16104984 -0.062083084 -0.19019212 -0.07205888
0.37234956 0.14275803 -0.34487605 0.16628954 0.02139722 0.2404431 -0.016113862 0.38993767
0.3383605 -0.32648754 0.014713057 0.15526502 0.17032072 -0.066402495 -0.44876453 0.09850789
-0.09047956 -0.15904114 -0.15795752 0.013020477 -0.24633738 0.0038090318 0.36461714 0.076108806
-0.14796379 0.1768634 0.18041661 0.10589604 0.21274693 -0.25271302 0.13917324 -0.08347533
-0.1507786 0.099389575 0.12365131 0.11050403 0.14923353 -0.12855491 0.16878955 0.041382197
0.03784031 -0.19404846 0.025270069 0.052121032 -0.25719684 0.08233959 0.05342309 -0.27991673
00000000: df36 86be 2b55 0b3e a660 cc3d 447a 1cbf
00000010: ccb6 803e f7c8 7cbd e014 f33d 21fd c0bd
00000020: 8cc2 cc3d 06d5 c33d b47f a5bd b7a5 5e3e
00000030: da54 773c 8b6e acbe c295 08be a8a1 b13d
00000040: d20a 9b3d 67e6 313e 482c 81be e6b2 c73d
00000050: 7f80 063d 0709 1c3e 5525 82bd 2f4e 9abd
00000060: 74ae 9e3d db5d 9cbd 520f cabc bb56 08bd
00000070: d16d 153e ea56 7f3e 8e85 10be 6838 9d3d
00000080: 9582 4c3e 0ce2 b93d 6c79 a63d 3920 a13c
00000090: 45f9 7ebd b52c 88be e78b 793d 921c 333e
000000a0: 98ec 2f3e 36cb 8c3d f5c0 ddbc c55e 2b3d
000000b0: 0c74 0a3e 311c 09be d17a d83d 83ed 643e
000000c0: fed1 d9bd e83e e33d c76f d5bd a514 863e
000000d0: 5a02 803e ac41 35be e1f8 743c 22a7 40be
000000e0: 30e7 00bd a148 923e 8595 8c3e e8d6 633e
000000f0: 4ea1 e0be 0d54 1a3e 87c5 2d3e caec 1b3e
00000100: 26ed 283e a118 06be 80c7 d33d 43c1 96bc
00000110: 164e 383d 662e 69bd 80aa 16ba 3414 8dbd
00000120: 6674 df3d 5543 db3d f5a2 0f3d 4e5c c03e
00000130: 7985 d43d 231a a1bc c501 dfbe 5b94 5b3e
00000140: fc44 d4be e08d ad3e f209 00bf 8855 6f3d
00000150: 2735 423d 7d15 143e e33f 673c 449a 54bd
00000160: f255 653f 2327 9abd e5bf 213d 75a2 aa3d
00000170: 1aa4 cd3c ca8c 253e 9207 c33c 216f d33d
00000180: 7ced 5cbe c59d 84be d376 043e fbdb 48bd
00000190: d5f1 ae3d a9ef 23be e341 653e 4017 f53d
000001a0: 547c 683d a76f d73d d4fb 8cbb 4be7 c83e
000001b0: 388a 9bbd 526c 1ebe 2abd 093e 056b b6bd
000001c0: f414 313d 116c 323e bb19 723d be85 183e
000001d0: 038b 2b3e b994 2cbe b794 9f3e 31f3 e6bc
000001e0: f7dc 84bd 467f d6bc 6d6d 263e 3ca8 713d
000001f0: 0924 ac3a 522d 68bd 2662 c3be fa6e 613e
00000200: 13a4 89be 777d 873e b7c0 403e 7b22 42bd
00000210: 1ccc 7c3e 4442 f53c 93c2 d63d acd8 283e
00000220: 0571 833b 0060 bb3d 3898 80bc e97d 0d3f
00000230: 0bdc 0e3f 63b5 9dbc 5f55 b6be b5ce b5bd
00000240: 7841 7a3e abd1 05be 6a02 3abe c621 033e
00000250: 2966 143e 4833 6a3e c9c1 95be 50af d3be
00000260: eacf 9a3d cc0b cfbc 77f0 453e 3ec2 5dbe
00000270: ca48 403e 0608 253e 3b76 69bc 5a08 8bbd
00000280: 7c44 21be e7ab 09bd 1759 293e 9e1a d03d
00000290: 7213 763e 56ee 2abe 7404 ad3d 5457 fe3d
000002a0: 3423 df3d d581 1c3e 9caa 073e 99ff f83c
000002b0: 5be0 5fbd 4dbd 5bbe be4e 003e d466 a13e
000002c0: 756f 483e ff8b dcbd bd4f e7bd 0970 693e
000002d0: 26b9 243e 7a11 3bbe 927b d73d 9efb 8dbc
000002e0: 9fd8 0dbe db73 c8bd 3c29 b93d 48c1 8b3e
000002f0: 37ec dbbd 4840 fe3d 1950 4cbe 3ff3 0ebe
00000300: 8b00 993c 3544 5b3e fe8c 94bd d5fe dfbe
00000310: 33ed d2bc 6d5a 21be 02f4 8bbd e0ac 533e
00000320: 5a99 8c3e c906 513e 1afd 833e ede0 a4be
00000330: 40ea 243e d54a 7ebd b9c1 42be 9b93 93bd
00000340: 9aa4 be3e 292f 123e 9893 b0be ce47 2a3e
00000350: 3949 af3c b736 763e 3801 84bc e9a5 c73e
00000360: 963d ad3e 6029 a7be 090f 713c cbfd 1e3e
00000370: 8e68 2e3e 08fe 87bd 77c4 e5be 81be c93d
00000380: 594d b9bd aedb 22be 9ebf 21be d753 553c
00000390: de3f 7cbe f3a0 793b 19af ba3e efde 9b3d
000003a0: d283 17be ae1b 353e 22bf 383e 06e0 d83d
000003b0: 55da 593e 9a63 81be 6e83 0e3e 1df5 aabd
000003c0: b565 1abe c38c cb3d e63c fd3d f04f e23d
000003d0: add0 183e e6a3 03be 2bd7 2c3e 6180 293d
000003e0: 71fe 1a3d a4b4 46be 2d03 cf3c dd7c 553d
000003f0: 4eaf 83be a9a1 a83d 2cd2 5a3d 3f51 8fbe

fc3.bias f4 [4]
0.18857014 0.16467284 0.10848086 0.055368192
00000000: 8818 413e ff9f 283e 372b de3d c2c9 623d
